…
INFO - 10/30/20 20:20:36 - 0:00:01 - Monolingual data   - train -       python:      4093
INFO - 10/30/20 20:20:36 - 0:00:01 - Monolingual data   - valid -       python:        10
INFO - 10/30/20 20:20:36 - 0:00:01 - Monolingual data   -  test -       python:        10
INFO - 10/30/20 20:20:36 - 0:00:01 - Monolingual data   - train -          dis:      4007
INFO - 10/30/20 20:20:36 - 0:00:01 - Monolingual data   - valid -          dis:        10
INFO - 10/30/20 20:20:36 - 0:00:01 - Monolingual data   -  test -          dis:        10

INFO - 10/30/20 20:20:39 - 0:00:04 - Model: TransformerModel(
                                       (position_embeddings): Embedding(1024, 1024)
                                       (lang_embeddings): Embedding(2, 1024)
                                       (embeddings): Embedding(54058, 1024, padding_idx=2)
                                       (layer_norm_emb): LayerNorm((1024,), eps=1e-12, elementwise_affine=True)
                                       (attentions): ModuleList(
                                         (0): MultiHeadAttention(
                                           (q_lin): Linear(in_features=1024, out_features=1024, bias=True)
                                           (k_lin): Linear(in_features=1024, out_features=1024, bias=True)
                                           (v_lin): Linear(in_features=1024, out_features=1024, bias=True)
                                           (out_lin): Linear(in_features=1024, out_features=1024, bias=True)
                                         )
                                         (1): MultiHeadAttention(
                                           (q_lin): Linear(in_features=1024, out_features=1024, bias=True)
                                           (k_lin): Linear(in_features=1024, out_features=1024, bias=True)
                                           (v_lin): Linear(in_features=1024, out_features=1024, bias=True)
                                           (out_lin): Linear(in_features=1024, out_features=1024, bias=True)
                                         )
                                         (2): MultiHeadAttention(
                                           (q_lin): Linear(in_features=1024, out_features=1024, bias=True)
                                           (k_lin): Linear(in_features=1024, out_features=1024, bias=True)
                                           (v_lin): Linear(in_features=1024, out_features=1024, bias=True)
                                           (out_lin): Linear(in_features=1024, out_features=1024, bias=True)
                                         )
                                         (3): MultiHeadAttention(
                                           (q_lin): Linear(in_features=1024, out_features=1024, bias=True)
                                           (k_lin): Linear(in_features=1024, out_features=1024, bias=True)
                                           (v_lin): Linear(in_features=1024, out_features=1024, bias=True)
                                           (out_lin): Linear(in_features=1024, out_features=1024, bias=True)
                                         )
                                         (4): MultiHeadAttention(
                                           (q_lin): Linear(in_features=1024, out_features=1024, bias=True)
                                           (k_lin): Linear(in_features=1024, out_features=1024, bias=True)
                                           (v_lin): Linear(in_features=1024, out_features=1024, bias=True)
                                           (out_lin): Linear(in_features=1024, out_features=1024, bias=True)
                                         )
                                         (5): MultiHeadAttention(
                                           (q_lin): Linear(in_features=1024, out_features=1024, bias=True)
                                           (k_lin): Linear(in_features=1024, out_features=1024, bias=True)
                                           (v_lin): Linear(in_features=1024, out_features=1024, bias=True)
                                           (out_lin): Linear(in_features=1024, out_features=1024, bias=True)
                                         )
                                       )
                                       (layer_norm1): ModuleList(
                                         (0): LayerNorm((1024,), eps=1e-12, elementwise_affine=True)
                                         (1): LayerNorm((1024,), eps=1e-12, elementwise_affine=True)
                                         (2): LayerNorm((1024,), eps=1e-12, elementwise_affine=True)
                                         (3): LayerNorm((1024,), eps=1e-12, elementwise_affine=True)
                                         (4): LayerNorm((1024,), eps=1e-12, elementwise_affine=True)
                                         (5): LayerNorm((1024,), eps=1e-12, elementwise_affine=True)
                                       )
                                       (ffns): ModuleList(
                                         (0): TransformerFFN(
                                           (lin1): Linear(in_features=1024, out_features=4096, bias=True)
                                           (lin2): Linear(in_features=4096, out_features=1024, bias=True)
                                         )
                                         (1): TransformerFFN(
                                           (lin1): Linear(in_features=1024, out_features=4096, bias=True)
                                           (lin2): Linear(in_features=4096, out_features=1024, bias=True)
                                         )
                                         (2): TransformerFFN(
                                           (lin1): Linear(in_features=1024, out_features=4096, bias=True)
                                           (lin2): Linear(in_features=4096, out_features=1024, bias=True)
                                         )
                                         (3): TransformerFFN(
                                           (lin1): Linear(in_features=1024, out_features=4096, bias=True)
                                           (lin2): Linear(in_features=4096, out_features=1024, bias=True)
                                         )
                                         (4): TransformerFFN(
                                           (lin1): Linear(in_features=1024, out_features=4096, bias=True)
                                           (lin2): Linear(in_features=4096, out_features=1024, bias=True)
                                         )
                                         (5): TransformerFFN(
                                           (lin1): Linear(in_features=1024, out_features=4096, bias=True)
                                           (lin2): Linear(in_features=4096, out_features=1024, bias=True)
                                         )
                                       )
                                       (layer_norm2): ModuleList(
                                         (0): LayerNorm((1024,), eps=1e-12, elementwise_affine=True)
                                         (1): LayerNorm((1024,), eps=1e-12, elementwise_affine=True)
                                         (2): LayerNorm((1024,), eps=1e-12, elementwise_affine=True)
                                         (3): LayerNorm((1024,), eps=1e-12, elementwise_affine=True)
                                         (4): LayerNorm((1024,), eps=1e-12, elementwise_affine=True)
                                         (5): LayerNorm((1024,), eps=1e-12, elementwise_affine=True)
                                       )
                                       (pred_layer): PredLayer(
                                         (proj): Linear(in_features=1024, out_features=54058, bias=True)
                                       )
                                     )
INFO - 10/30/20 20:20:39 - 0:00:04 - Number of parameters (model): 132039466
INFO - 10/30/20 20:20:40 - 0:00:06 - Found 102 parameters in model.
INFO - 10/30/20 20:20:40 - 0:00:06 - Optimizers: model
INFO - 10/30/20 20:20:41 - 0:00:06 - ============ Starting epoch 0 ... ============
…
