…
INFO - 11/07/20 07:05:35 - 0:00:01 - Monolingual data   - train -    python_sa:     63288
INFO - 11/07/20 07:05:35 - 0:00:01 - Monolingual data   - valid -    python_sa:        20
INFO - 11/07/20 07:05:35 - 0:00:01 - Monolingual data   -  test -    python_sa:        20
INFO - 11/07/20 07:05:35 - 0:00:01 - Monolingual data   - train -       dis_sa:     63288
INFO - 11/07/20 07:05:35 - 0:00:01 - Monolingual data   - valid -       dis_sa:        20
INFO - 11/07/20 07:05:35 - 0:00:01 - Monolingual data   -  test -       dis_sa:        20

INFO - 11/07/20 07:05:38 - 0:00:04 - Model: TransformerModel(
                                       (position_embeddings): Embedding(1024, 1024)
                                       (lang_embeddings): Embedding(2, 1024)
                                       (embeddings): Embedding(45758, 1024, padding_idx=2)
                                       (layer_norm_emb): LayerNorm((1024,), eps=1e-12, elementwise_affine=True)
                                       (attentions): ModuleList(
                                         (0): MultiHeadAttention(
                                           (q_lin): Linear(in_features=1024, out_features=1024, bias=True)
                                           (k_lin): Linear(in_features=1024, out_features=1024, bias=True)
                                           (v_lin): Linear(in_features=1024, out_features=1024, bias=True)
                                           (out_lin): Linear(in_features=1024, out_features=1024, bias=True)
                                         )
                                         (1): MultiHeadAttention(
                                           (q_lin): Linear(in_features=1024, out_features=1024, bias=True)
                                           (k_lin): Linear(in_features=1024, out_features=1024, bias=True)
                                           (v_lin): Linear(in_features=1024, out_features=1024, bias=True)
                                           (out_lin): Linear(in_features=1024, out_features=1024, bias=True)
                                         )
                                         (2): MultiHeadAttention(
                                           (q_lin): Linear(in_features=1024, out_features=1024, bias=True)
                                           (k_lin): Linear(in_features=1024, out_features=1024, bias=True)
                                           (v_lin): Linear(in_features=1024, out_features=1024, bias=True)
                                           (out_lin): Linear(in_features=1024, out_features=1024, bias=True)
                                         )
                                         (3): MultiHeadAttention(
                                           (q_lin): Linear(in_features=1024, out_features=1024, bias=True)
                                           (k_lin): Linear(in_features=1024, out_features=1024, bias=True)
                                           (v_lin): Linear(in_features=1024, out_features=1024, bias=True)
                                           (out_lin): Linear(in_features=1024, out_features=1024, bias=True)
                                         )
                                         (4): MultiHeadAttention(
                                           (q_lin): Linear(in_features=1024, out_features=1024, bias=True)
                                           (k_lin): Linear(in_features=1024, out_features=1024, bias=True)
                                           (v_lin): Linear(in_features=1024, out_features=1024, bias=True)
                                           (out_lin): Linear(in_features=1024, out_features=1024, bias=True)
                                         )
                                         (5): MultiHeadAttention(
                                           (q_lin): Linear(in_features=1024, out_features=1024, bias=True)
                                           (k_lin): Linear(in_features=1024, out_features=1024, bias=True)
                                           (v_lin): Linear(in_features=1024, out_features=1024, bias=True)
                                           (out_lin): Linear(in_features=1024, out_features=1024, bias=True)
                                         )
                                       )
                                       (layer_norm1): ModuleList(
                                         (0): LayerNorm((1024,), eps=1e-12, elementwise_affine=True)
                                         (1): LayerNorm((1024,), eps=1e-12, elementwise_affine=True)
                                         (2): LayerNorm((1024,), eps=1e-12, elementwise_affine=True)
                                         (3): LayerNorm((1024,), eps=1e-12, elementwise_affine=True)
                                         (4): LayerNorm((1024,), eps=1e-12, elementwise_affine=True)
                                         (5): LayerNorm((1024,), eps=1e-12, elementwise_affine=True)
                                       )
                                       (ffns): ModuleList(
                                         (0): TransformerFFN(
                                           (lin1): Linear(in_features=1024, out_features=4096, bias=True)
                                           (lin2): Linear(in_features=4096, out_features=1024, bias=True)
                                         )
                                         (1): TransformerFFN(
                                           (lin1): Linear(in_features=1024, out_features=4096, bias=True)
                                           (lin2): Linear(in_features=4096, out_features=1024, bias=True)
                                         )
                                         (2): TransformerFFN(
                                           (lin1): Linear(in_features=1024, out_features=4096, bias=True)
                                           (lin2): Linear(in_features=4096, out_features=1024, bias=True)
                                         )
                                         (3): TransformerFFN(
                                           (lin1): Linear(in_features=1024, out_features=4096, bias=True)
                                           (lin2): Linear(in_features=4096, out_features=1024, bias=True)
                                         )
                                         (4): TransformerFFN(
                                           (lin1): Linear(in_features=1024, out_features=4096, bias=True)
                                           (lin2): Linear(in_features=4096, out_features=1024, bias=True)
                                         )
                                         (5): TransformerFFN(
                                           (lin1): Linear(in_features=1024, out_features=4096, bias=True)
                                           (lin2): Linear(in_features=4096, out_features=1024, bias=True)
                                         )
                                       )
                                       (layer_norm2): ModuleList(
                                         (0): LayerNorm((1024,), eps=1e-12, elementwise_affine=True)
                                         (1): LayerNorm((1024,), eps=1e-12, elementwise_affine=True)
                                         (2): LayerNorm((1024,), eps=1e-12, elementwise_affine=True)
                                         (3): LayerNorm((1024,), eps=1e-12, elementwise_affine=True)
                                         (4): LayerNorm((1024,), eps=1e-12, elementwise_affine=True)
                                         (5): LayerNorm((1024,), eps=1e-12, elementwise_affine=True)
                                       )
                                       (pred_layer): PredLayer(
                                         (proj): Linear(in_features=1024, out_features=45758, bias=True)
                                       )
                                     )
INFO - 11/07/20 07:05:38 - 0:00:04 - Number of parameters (model): 123531966
INFO - 11/07/20 07:05:40 - 0:00:06 - Found 102 parameters in model.
INFO - 11/07/20 07:05:40 - 0:00:06 - Optimizers: model
WARNING - 11/07/20 07:05:40 - 0:00:06 - Reloading checkpoint from /home/ubuntu/TransCoder/models/mlm_python_dis_with_coms/opwnu66vus/checkpoint.pth ...
…
