…
INFO - 11/12/20 01:42:49 - 0:00:01 - Monolingual data   -  test -       dis_sa:       473
INFO - 11/12/20 01:42:49 - 0:00:01 - Parallel data      - valid - dis_sa-python_sa:        16
INFO - 11/12/20 01:42:49 - 0:00:01 - Parallel data      -  test - dis_sa-python_sa:       345

INFO - 11/12/20 01:42:54 - 0:00:06 - Reloading encoder from /home/ubuntu/TransCoder/models/mt_sa/3je05qxdtu/periodic-130.pth ...
INFO - 11/12/20 01:42:57 - 0:00:10 - Reloading decoders from /home/ubuntu/TransCoder/models/mt_sa/3je05qxdtu/periodic-130.pth ...
DEBUG - 11/12/20 01:42:59 - 0:00:11 - Encoder: TransformerModel(
                                        (position_embeddings): Embedding(1024, 1024)
                                        (lang_embeddings): Embedding(2, 1024)
                                        (embeddings): Embedding(45758, 1024, padding_idx=2)
                                        (layer_norm_emb): LayerNorm((1024,), eps=1e-12, elementwise_affine=True)
                                        (attentions): ModuleList(
                                          (0): MultiHeadAttention(
                                            (q_lin): Linear(in_features=1024, out_features=1024, bias=True)
                                            (k_lin): Linear(in_features=1024, out_features=1024, bias=True)
                                            (v_lin): Linear(in_features=1024, out_features=1024, bias=True)
                                            (out_lin): Linear(in_features=1024, out_features=1024, bias=True)
                                          )
                                          (1): MultiHeadAttention(
                                            (q_lin): Linear(in_features=1024, out_features=1024, bias=True)
                                            (k_lin): Linear(in_features=1024, out_features=1024, bias=True)
                                            (v_lin): Linear(in_features=1024, out_features=1024, bias=True)
                                            (out_lin): Linear(in_features=1024, out_features=1024, bias=True)
                                          )
                                          (2): MultiHeadAttention(
                                            (q_lin): Linear(in_features=1024, out_features=1024, bias=True)
                                            (k_lin): Linear(in_features=1024, out_features=1024, bias=True)
                                            (v_lin): Linear(in_features=1024, out_features=1024, bias=True)
                                            (out_lin): Linear(in_features=1024, out_features=1024, bias=True)
                                          )
                                          (3): MultiHeadAttention(
                                            (q_lin): Linear(in_features=1024, out_features=1024, bias=True)
                                            (k_lin): Linear(in_features=1024, out_features=1024, bias=True)
                                            (v_lin): Linear(in_features=1024, out_features=1024, bias=True)
                                            (out_lin): Linear(in_features=1024, out_features=1024, bias=True)
                                          )
                                          (4): MultiHeadAttention(
                                            (q_lin): Linear(in_features=1024, out_features=1024, bias=True)
                                            (k_lin): Linear(in_features=1024, out_features=1024, bias=True)
                                            (v_lin): Linear(in_features=1024, out_features=1024, bias=True)
                                            (out_lin): Linear(in_features=1024, out_features=1024, bias=True)
                                          )
                                          (5): MultiHeadAttention(
                                            (q_lin): Linear(in_features=1024, out_features=1024, bias=True)
                                            (k_lin): Linear(in_features=1024, out_features=1024, bias=True)
                                            (v_lin): Linear(in_features=1024, out_features=1024, bias=True)
                                            (out_lin): Linear(in_features=1024, out_features=1024, bias=True)
                                          )
                                        )
                                        (layer_norm1): ModuleList(
                                          (0): LayerNorm((1024,), eps=1e-12, elementwise_affine=True)
                                          (1): LayerNorm((1024,), eps=1e-12, elementwise_affine=True)
                                          (2): LayerNorm((1024,), eps=1e-12, elementwise_affine=True)
                                          (3): LayerNorm((1024,), eps=1e-12, elementwise_affine=True)
                                          (4): LayerNorm((1024,), eps=1e-12, elementwise_affine=True)
                                          (5): LayerNorm((1024,), eps=1e-12, elementwise_affine=True)
                                        )
                                        (ffns): ModuleList(
                                          (0): TransformerFFN(
                                            (lin1): Linear(in_features=1024, out_features=4096, bias=True)
                                            (lin2): Linear(in_features=4096, out_features=1024, bias=True)
                                          )
                                          (1): TransformerFFN(
                                            (lin1): Linear(in_features=1024, out_features=4096, bias=True)
                                            (lin2): Linear(in_features=4096, out_features=1024, bias=True)
                                          )
                                          (2): TransformerFFN(
                                            (lin1): Linear(in_features=1024, out_features=4096, bias=True)
                                            (lin2): Linear(in_features=4096, out_features=1024, bias=True)
                                          )
                                          (3): TransformerFFN(
                                            (lin1): Linear(in_features=1024, out_features=4096, bias=True)
                                            (lin2): Linear(in_features=4096, out_features=1024, bias=True)
                                          )
                                          (4): TransformerFFN(
                                            (lin1): Linear(in_features=1024, out_features=4096, bias=True)
                                            (lin2): Linear(in_features=4096, out_features=1024, bias=True)
                                          )
                                          (5): TransformerFFN(
                                            (lin1): Linear(in_features=1024, out_features=4096, bias=True)
                                            (lin2): Linear(in_features=4096, out_features=1024, bias=True)
                                          )
                                        )
                                        (layer_norm2): ModuleList(
                                          (0): LayerNorm((1024,), eps=1e-12, elementwise_affine=True)
                                          (1): LayerNorm((1024,), eps=1e-12, elementwise_affine=True)
                                          (2): LayerNorm((1024,), eps=1e-12, elementwise_affine=True)
                                          (3): LayerNorm((1024,), eps=1e-12, elementwise_affine=True)
                                          (4): LayerNorm((1024,), eps=1e-12, elementwise_affine=True)
                                          (5): LayerNorm((1024,), eps=1e-12, elementwise_affine=True)
                                        )
                                        (pred_layer): PredLayer(
                                          (proj): Linear(in_features=1024, out_features=45758, bias=True)
                                        )
                                      )
DEBUG - 11/12/20 01:42:59 - 0:00:11 - Decoder: [TransformerModel(
                                        (position_embeddings): Embedding(1024, 1024)
                                        (lang_embeddings): Embedding(2, 1024)
                                        (embeddings): Embedding(45758, 1024, padding_idx=2)
                                        (layer_norm_emb): LayerNorm((1024,), eps=1e-12, elementwise_affine=True)
                                        (attentions): ModuleList(
                                          (0): MultiHeadAttention(
                                            (q_lin): Linear(in_features=1024, out_features=1024, bias=True)
                                            (k_lin): Linear(in_features=1024, out_features=1024, bias=True)
                                            (v_lin): Linear(in_features=1024, out_features=1024, bias=True)
                                            (out_lin): Linear(in_features=1024, out_features=1024, bias=True)
                                          )
                                          (1): MultiHeadAttention(
                                            (q_lin): Linear(in_features=1024, out_features=1024, bias=True)
                                            (k_lin): Linear(in_features=1024, out_features=1024, bias=True)
                                            (v_lin): Linear(in_features=1024, out_features=1024, bias=True)
                                            (out_lin): Linear(in_features=1024, out_features=1024, bias=True)
                                          )
                                          (2): MultiHeadAttention(
                                            (q_lin): Linear(in_features=1024, out_features=1024, bias=True)
                                            (k_lin): Linear(in_features=1024, out_features=1024, bias=True)
                                            (v_lin): Linear(in_features=1024, out_features=1024, bias=True)
                                            (out_lin): Linear(in_features=1024, out_features=1024, bias=True)
                                          )
                                          (3): MultiHeadAttention(
                                            (q_lin): Linear(in_features=1024, out_features=1024, bias=True)
                                            (k_lin): Linear(in_features=1024, out_features=1024, bias=True)
                                            (v_lin): Linear(in_features=1024, out_features=1024, bias=True)
                                            (out_lin): Linear(in_features=1024, out_features=1024, bias=True)
                                          )
                                          (4): MultiHeadAttention(
                                            (q_lin): Linear(in_features=1024, out_features=1024, bias=True)
                                            (k_lin): Linear(in_features=1024, out_features=1024, bias=True)
                                            (v_lin): Linear(in_features=1024, out_features=1024, bias=True)
                                            (out_lin): Linear(in_features=1024, out_features=1024, bias=True)
                                          )
                                          (5): MultiHeadAttention(
                                            (q_lin): Linear(in_features=1024, out_features=1024, bias=True)
                                            (k_lin): Linear(in_features=1024, out_features=1024, bias=True)
                                            (v_lin): Linear(in_features=1024, out_features=1024, bias=True)
                                            (out_lin): Linear(in_features=1024, out_features=1024, bias=True)
                                          )
                                        )
                                        (layer_norm1): ModuleList(
                                          (0): LayerNorm((1024,), eps=1e-12, elementwise_affine=True)
                                          (1): LayerNorm((1024,), eps=1e-12, elementwise_affine=True)
                                          (2): LayerNorm((1024,), eps=1e-12, elementwise_affine=True)
                                          (3): LayerNorm((1024,), eps=1e-12, elementwise_affine=True)
                                          (4): LayerNorm((1024,), eps=1e-12, elementwise_affine=True)
                                          (5): LayerNorm((1024,), eps=1e-12, elementwise_affine=True)
                                        )
                                        (ffns): ModuleList(
                                          (0): TransformerFFN(
                                            (lin1): Linear(in_features=1024, out_features=4096, bias=True)
                                            (lin2): Linear(in_features=4096, out_features=1024, bias=True)
                                          )
                                          (1): TransformerFFN(
                                            (lin1): Linear(in_features=1024, out_features=4096, bias=True)
                                            (lin2): Linear(in_features=4096, out_features=1024, bias=True)
                                          )
                                          (2): TransformerFFN(
                                            (lin1): Linear(in_features=1024, out_features=4096, bias=True)
                                            (lin2): Linear(in_features=4096, out_features=1024, bias=True)
                                          )
                                          (3): TransformerFFN(
                                            (lin1): Linear(in_features=1024, out_features=4096, bias=True)
                                            (lin2): Linear(in_features=4096, out_features=1024, bias=True)
                                          )
                                          (4): TransformerFFN(
                                            (lin1): Linear(in_features=1024, out_features=4096, bias=True)
                                            (lin2): Linear(in_features=4096, out_features=1024, bias=True)
                                          )
                                          (5): TransformerFFN(
                                            (lin1): Linear(in_features=1024, out_features=4096, bias=True)
                                            (lin2): Linear(in_features=4096, out_features=1024, bias=True)
                                          )
                                        )
                                        (layer_norm2): ModuleList(
                                          (0): LayerNorm((1024,), eps=1e-12, elementwise_affine=True)
                                          (1): LayerNorm((1024,), eps=1e-12, elementwise_affine=True)
                                          (2): LayerNorm((1024,), eps=1e-12, elementwise_affine=True)
                                          (3): LayerNorm((1024,), eps=1e-12, elementwise_affine=True)
                                          (4): LayerNorm((1024,), eps=1e-12, elementwise_affine=True)
                                          (5): LayerNorm((1024,), eps=1e-12, elementwise_affine=True)
                                        )
                                        (layer_norm15): ModuleList(
                                          (0): LayerNorm((1024,), eps=1e-12, elementwise_affine=True)
                                          (1): LayerNorm((1024,), eps=1e-12, elementwise_affine=True)
                                          (2): LayerNorm((1024,), eps=1e-12, elementwise_affine=True)
                                          (3): LayerNorm((1024,), eps=1e-12, elementwise_affine=True)
                                          (4): LayerNorm((1024,), eps=1e-12, elementwise_affine=True)
                                          (5): LayerNorm((1024,), eps=1e-12, elementwise_affine=True)
                                        )
                                        (encoder_attn): ModuleList(
                                          (0): MultiHeadAttention(
                                            (q_lin): Linear(in_features=1024, out_features=1024, bias=True)
                                            (k_lin): Linear(in_features=1024, out_features=1024, bias=True)
                                            (v_lin): Linear(in_features=1024, out_features=1024, bias=True)
                                            (out_lin): Linear(in_features=1024, out_features=1024, bias=True)
                                          )
                                          (1): MultiHeadAttention(
                                            (q_lin): Linear(in_features=1024, out_features=1024, bias=True)
                                            (k_lin): Linear(in_features=1024, out_features=1024, bias=True)
                                            (v_lin): Linear(in_features=1024, out_features=1024, bias=True)
                                            (out_lin): Linear(in_features=1024, out_features=1024, bias=True)
                                          )
                                          (2): MultiHeadAttention(
                                            (q_lin): Linear(in_features=1024, out_features=1024, bias=True)
                                            (k_lin): Linear(in_features=1024, out_features=1024, bias=True)
                                            (v_lin): Linear(in_features=1024, out_features=1024, bias=True)
                                            (out_lin): Linear(in_features=1024, out_features=1024, bias=True)
                                          )
                                          (3): MultiHeadAttention(
                                            (q_lin): Linear(in_features=1024, out_features=1024, bias=True)
                                            (k_lin): Linear(in_features=1024, out_features=1024, bias=True)
                                            (v_lin): Linear(in_features=1024, out_features=1024, bias=True)
                                            (out_lin): Linear(in_features=1024, out_features=1024, bias=True)
                                          )
                                          (4): MultiHeadAttention(
                                            (q_lin): Linear(in_features=1024, out_features=1024, bias=True)
                                            (k_lin): Linear(in_features=1024, out_features=1024, bias=True)
                                            (v_lin): Linear(in_features=1024, out_features=1024, bias=True)
                                            (out_lin): Linear(in_features=1024, out_features=1024, bias=True)
                                          )
                                          (5): MultiHeadAttention(
                                            (q_lin): Linear(in_features=1024, out_features=1024, bias=True)
                                            (k_lin): Linear(in_features=1024, out_features=1024, bias=True)
                                            (v_lin): Linear(in_features=1024, out_features=1024, bias=True)
                                            (out_lin): Linear(in_features=1024, out_features=1024, bias=True)
                                          )
                                        )
                                        (pred_layer): PredLayer(
                                          (proj): Linear(in_features=1024, out_features=45758, bias=True)
                                        )
                                      )]
INFO - 11/12/20 01:42:59 - 0:00:11 - Number of parameters (encoder): 123531966
INFO - 11/12/20 01:42:59 - 0:00:11 - Number of parameters (decoders): 148734654
INFO - 11/12/20 01:42:59 - 0:00:11 - Number of decoders: 1
INFO - 11/12/20 01:42:59 - 0:00:11 - Found 264 parameters in model.
…
