…
INFO - 11/17/20 05:15:56 - 0:00:01 - Parallel data      - valid - dis_sa-python_sa:       345
INFO - 11/17/20 05:15:56 - 0:00:01 - Parallel data      -  test - dis_sa-python_sa:       556

INFO - 11/17/20 05:16:01 - 0:00:06 - Reloading encoder from /home/ubuntu/TransCoder/models/bt_with_comments_sa_final_modif_test/25qo770ifv/checkpoint.pth ...
INFO - 11/17/20 05:16:06 - 0:00:11 - Reloading decoders from /home/ubuntu/TransCoder/models/bt_with_comments_sa_final_modif_test/25qo770ifv/checkpoint.pth ...
DEBUG - 11/17/20 05:16:09 - 0:00:14 - Encoder: TransformerModel(
                                        (position_embeddings): Embedding(1024, 1024)
                                        (lang_embeddings): Embedding(2, 1024)
                                        (embeddings): Embedding(54058, 1024, padding_idx=2)
                                        (layer_norm_emb): LayerNorm((1024,), eps=1e-12, elementwise_affine=True)
                                        (attentions): ModuleList(
                                          (0): MultiHeadAttention(
                                            (q_lin): Linear(in_features=1024, out_features=1024, bias=True)
                                            (k_lin): Linear(in_features=1024, out_features=1024, bias=True)
                                            (v_lin): Linear(in_features=1024, out_features=1024, bias=True)
                                            (out_lin): Linear(in_features=1024, out_features=1024, bias=True)
                                          )
                                          (1): MultiHeadAttention(
                                            (q_lin): Linear(in_features=1024, out_features=1024, bias=True)
                                            (k_lin): Linear(in_features=1024, out_features=1024, bias=True)
                                            (v_lin): Linear(in_features=1024, out_features=1024, bias=True)
                                            (out_lin): Linear(in_features=1024, out_features=1024, bias=True)
                                          )
                                          (2): MultiHeadAttention(
                                            (q_lin): Linear(in_features=1024, out_features=1024, bias=True)
                                            (k_lin): Linear(in_features=1024, out_features=1024, bias=True)
                                            (v_lin): Linear(in_features=1024, out_features=1024, bias=True)
                                            (out_lin): Linear(in_features=1024, out_features=1024, bias=True)
                                          )
                                          (3): MultiHeadAttention(
                                            (q_lin): Linear(in_features=1024, out_features=1024, bias=True)
                                            (k_lin): Linear(in_features=1024, out_features=1024, bias=True)
                                            (v_lin): Linear(in_features=1024, out_features=1024, bias=True)
                                            (out_lin): Linear(in_features=1024, out_features=1024, bias=True)
                                          )
                                          (4): MultiHeadAttention(
                                            (q_lin): Linear(in_features=1024, out_features=1024, bias=True)
                                            (k_lin): Linear(in_features=1024, out_features=1024, bias=True)
                                            (v_lin): Linear(in_features=1024, out_features=1024, bias=True)
                                            (out_lin): Linear(in_features=1024, out_features=1024, bias=True)
                                          )
                                          (5): MultiHeadAttention(
                                            (q_lin): Linear(in_features=1024, out_features=1024, bias=True)
                                            (k_lin): Linear(in_features=1024, out_features=1024, bias=True)
                                            (v_lin): Linear(in_features=1024, out_features=1024, bias=True)
                                            (out_lin): Linear(in_features=1024, out_features=1024, bias=True)
                                          )
                                        )
                                        (layer_norm1): ModuleList(
                                          (0): LayerNorm((1024,), eps=1e-12, elementwise_affine=True)
                                          (1): LayerNorm((1024,), eps=1e-12, elementwise_affine=True)
                                          (2): LayerNorm((1024,), eps=1e-12, elementwise_affine=True)
                                          (3): LayerNorm((1024,), eps=1e-12, elementwise_affine=True)
                                          (4): LayerNorm((1024,), eps=1e-12, elementwise_affine=True)
                                          (5): LayerNorm((1024,), eps=1e-12, elementwise_affine=True)
                                        )
                                        (ffns): ModuleList(
                                          (0): TransformerFFN(
                                            (lin1): Linear(in_features=1024, out_features=4096, bias=True)
                                            (lin2): Linear(in_features=4096, out_features=1024, bias=True)
                                          )
                                          (1): TransformerFFN(
                                            (lin1): Linear(in_features=1024, out_features=4096, bias=True)
                                            (lin2): Linear(in_features=4096, out_features=1024, bias=True)
                                          )
                                          (2): TransformerFFN(
                                            (lin1): Linear(in_features=1024, out_features=4096, bias=True)
                                            (lin2): Linear(in_features=4096, out_features=1024, bias=True)
                                          )
                                          (3): TransformerFFN(
                                            (lin1): Linear(in_features=1024, out_features=4096, bias=True)
                                            (lin2): Linear(in_features=4096, out_features=1024, bias=True)
                                          )
                                          (4): TransformerFFN(
                                            (lin1): Linear(in_features=1024, out_features=4096, bias=True)
                                            (lin2): Linear(in_features=4096, out_features=1024, bias=True)
                                          )
                                          (5): TransformerFFN(
                                            (lin1): Linear(in_features=1024, out_features=4096, bias=True)
                                            (lin2): Linear(in_features=4096, out_features=1024, bias=True)
                                          )
                                        )
                                        (layer_norm2): ModuleList(
                                          (0): LayerNorm((1024,), eps=1e-12, elementwise_affine=True)
                                          (1): LayerNorm((1024,), eps=1e-12, elementwise_affine=True)
                                          (2): LayerNorm((1024,), eps=1e-12, elementwise_affine=True)
                                          (3): LayerNorm((1024,), eps=1e-12, elementwise_affine=True)
                                          (4): LayerNorm((1024,), eps=1e-12, elementwise_affine=True)
                                          (5): LayerNorm((1024,), eps=1e-12, elementwise_affine=True)
                                        )
                                        (pred_layer): PredLayer(
                                          (proj): Linear(in_features=1024, out_features=54058, bias=True)
                                        )
                                      )
DEBUG - 11/17/20 05:16:09 - 0:00:14 - Decoder: [TransformerModel(
                                        (position_embeddings): Embedding(1024, 1024)
                                        (lang_embeddings): Embedding(2, 1024)
                                        (embeddings): Embedding(54058, 1024, padding_idx=2)
                                        (layer_norm_emb): LayerNorm((1024,), eps=1e-12, elementwise_affine=True)
                                        (attentions): ModuleList(
                                          (0): MultiHeadAttention(
                                            (q_lin): Linear(in_features=1024, out_features=1024, bias=True)
                                            (k_lin): Linear(in_features=1024, out_features=1024, bias=True)
                                            (v_lin): Linear(in_features=1024, out_features=1024, bias=True)
                                            (out_lin): Linear(in_features=1024, out_features=1024, bias=True)
                                          )
                                          (1): MultiHeadAttention(
                                            (q_lin): Linear(in_features=1024, out_features=1024, bias=True)
                                            (k_lin): Linear(in_features=1024, out_features=1024, bias=True)
                                            (v_lin): Linear(in_features=1024, out_features=1024, bias=True)
                                            (out_lin): Linear(in_features=1024, out_features=1024, bias=True)
                                          )
                                          (2): MultiHeadAttention(
                                            (q_lin): Linear(in_features=1024, out_features=1024, bias=True)
                                            (k_lin): Linear(in_features=1024, out_features=1024, bias=True)
                                            (v_lin): Linear(in_features=1024, out_features=1024, bias=True)
                                            (out_lin): Linear(in_features=1024, out_features=1024, bias=True)
                                          )
                                          (3): MultiHeadAttention(
                                            (q_lin): Linear(in_features=1024, out_features=1024, bias=True)
                                            (k_lin): Linear(in_features=1024, out_features=1024, bias=True)
                                            (v_lin): Linear(in_features=1024, out_features=1024, bias=True)
                                            (out_lin): Linear(in_features=1024, out_features=1024, bias=True)
                                          )
                                          (4): MultiHeadAttention(
                                            (q_lin): Linear(in_features=1024, out_features=1024, bias=True)
                                            (k_lin): Linear(in_features=1024, out_features=1024, bias=True)
                                            (v_lin): Linear(in_features=1024, out_features=1024, bias=True)
                                            (out_lin): Linear(in_features=1024, out_features=1024, bias=True)
                                          )
                                          (5): MultiHeadAttention(
                                            (q_lin): Linear(in_features=1024, out_features=1024, bias=True)
                                            (k_lin): Linear(in_features=1024, out_features=1024, bias=True)
                                            (v_lin): Linear(in_features=1024, out_features=1024, bias=True)
                                            (out_lin): Linear(in_features=1024, out_features=1024, bias=True)
                                          )
                                        )
                                        (layer_norm1): ModuleList(
                                          (0): LayerNorm((1024,), eps=1e-12, elementwise_affine=True)
                                          (1): LayerNorm((1024,), eps=1e-12, elementwise_affine=True)
                                          (2): LayerNorm((1024,), eps=1e-12, elementwise_affine=True)
                                          (3): LayerNorm((1024,), eps=1e-12, elementwise_affine=True)
                                          (4): LayerNorm((1024,), eps=1e-12, elementwise_affine=True)
                                          (5): LayerNorm((1024,), eps=1e-12, elementwise_affine=True)
                                        )
                                        (ffns): ModuleList(
                                          (0): TransformerFFN(
                                            (lin1): Linear(in_features=1024, out_features=4096, bias=True)
                                            (lin2): Linear(in_features=4096, out_features=1024, bias=True)
                                          )
                                          (1): TransformerFFN(
                                            (lin1): Linear(in_features=1024, out_features=4096, bias=True)
                                            (lin2): Linear(in_features=4096, out_features=1024, bias=True)
                                          )
                                          (2): TransformerFFN(
                                            (lin1): Linear(in_features=1024, out_features=4096, bias=True)
                                            (lin2): Linear(in_features=4096, out_features=1024, bias=True)
                                          )
                                          (3): TransformerFFN(
                                            (lin1): Linear(in_features=1024, out_features=4096, bias=True)
                                            (lin2): Linear(in_features=4096, out_features=1024, bias=True)
                                          )
                                          (4): TransformerFFN(
                                            (lin1): Linear(in_features=1024, out_features=4096, bias=True)
                                            (lin2): Linear(in_features=4096, out_features=1024, bias=True)
                                          )
                                          (5): TransformerFFN(
                                            (lin1): Linear(in_features=1024, out_features=4096, bias=True)
                                            (lin2): Linear(in_features=4096, out_features=1024, bias=True)
                                          )
                                        )
                                        (layer_norm2): ModuleList(
                                          (0): LayerNorm((1024,), eps=1e-12, elementwise_affine=True)
                                          (1): LayerNorm((1024,), eps=1e-12, elementwise_affine=True)
                                          (2): LayerNorm((1024,), eps=1e-12, elementwise_affine=True)
                                          (3): LayerNorm((1024,), eps=1e-12, elementwise_affine=True)
                                          (4): LayerNorm((1024,), eps=1e-12, elementwise_affine=True)
                                          (5): LayerNorm((1024,), eps=1e-12, elementwise_affine=True)
                                        )
                                        (layer_norm15): ModuleList(
                                          (0): LayerNorm((1024,), eps=1e-12, elementwise_affine=True)
                                          (1): LayerNorm((1024,), eps=1e-12, elementwise_affine=True)
                                          (2): LayerNorm((1024,), eps=1e-12, elementwise_affine=True)
                                          (3): LayerNorm((1024,), eps=1e-12, elementwise_affine=True)
                                          (4): LayerNorm((1024,), eps=1e-12, elementwise_affine=True)
                                          (5): LayerNorm((1024,), eps=1e-12, elementwise_affine=True)
                                        )
                                        (encoder_attn): ModuleList(
                                          (0): MultiHeadAttention(
                                            (q_lin): Linear(in_features=1024, out_features=1024, bias=True)
                                            (k_lin): Linear(in_features=1024, out_features=1024, bias=True)
                                            (v_lin): Linear(in_features=1024, out_features=1024, bias=True)
                                            (out_lin): Linear(in_features=1024, out_features=1024, bias=True)
                                          )
                                          (1): MultiHeadAttention(
                                            (q_lin): Linear(in_features=1024, out_features=1024, bias=True)
                                            (k_lin): Linear(in_features=1024, out_features=1024, bias=True)
                                            (v_lin): Linear(in_features=1024, out_features=1024, bias=True)
                                            (out_lin): Linear(in_features=1024, out_features=1024, bias=True)
                                          )
                                          (2): MultiHeadAttention(
                                            (q_lin): Linear(in_features=1024, out_features=1024, bias=True)
                                            (k_lin): Linear(in_features=1024, out_features=1024, bias=True)
                                            (v_lin): Linear(in_features=1024, out_features=1024, bias=True)
                                            (out_lin): Linear(in_features=1024, out_features=1024, bias=True)
                                          )
                                          (3): MultiHeadAttention(
                                            (q_lin): Linear(in_features=1024, out_features=1024, bias=True)
                                            (k_lin): Linear(in_features=1024, out_features=1024, bias=True)
                                            (v_lin): Linear(in_features=1024, out_features=1024, bias=True)
                                            (out_lin): Linear(in_features=1024, out_features=1024, bias=True)
                                          )
                                          (4): MultiHeadAttention(
                                            (q_lin): Linear(in_features=1024, out_features=1024, bias=True)
                                            (k_lin): Linear(in_features=1024, out_features=1024, bias=True)
                                            (v_lin): Linear(in_features=1024, out_features=1024, bias=True)
                                            (out_lin): Linear(in_features=1024, out_features=1024, bias=True)
                                          )
                                          (5): MultiHeadAttention(
                                            (q_lin): Linear(in_features=1024, out_features=1024, bias=True)
                                            (k_lin): Linear(in_features=1024, out_features=1024, bias=True)
                                            (v_lin): Linear(in_features=1024, out_features=1024, bias=True)
                                            (out_lin): Linear(in_features=1024, out_features=1024, bias=True)
                                          )
                                        )
                                        (pred_layer): PredLayer(
                                          (proj): Linear(in_features=1024, out_features=54058, bias=True)
                                        )
                                      )]
INFO - 11/17/20 05:16:09 - 0:00:14 - Number of parameters (encoder): 132039466
INFO - 11/17/20 05:16:09 - 0:00:14 - Number of parameters (decoders): 157242154
INFO - 11/17/20 05:16:09 - 0:00:14 - Number of decoders: 1
INFO - 11/17/20 05:16:09 - 0:00:14 - Found 264 parameters in model.
…
